code/[01]tutorials/train_a_classifier/cifar_net.pth (torch_old, 249582 bytes, 10 tensors)

conv1.weight f4 [6, 3, 5, 5]
000000 c9 ce 17 3e 92 20 2d 3d 17 c5 32 3b 94 be ae bc
       0.14824976 0.04226739 0.002727812 -0.02133111
000010 0a 39 4f bc 57 3c 6e 3d 3c 93 b7 bc ac 41 07 bd
       -0.0126478765 0.058163013 -0.022409074 -0.033021614
000020 3e ee 24 be 49 59 2c bd 33 53 56 3e ff ed 38 3d
       -0.16106507 -0.042077336 0.20930175 0.045148846
000030 ec f4 d5 3d 9f b4 37 3d e9 b7 3c be f7 2b b0 3d
       0.10447106 0.044849988 -0.18429531 0.08602136
000040 a9 1f 1d 3e e4 36 b4 3d ea b1 60 3d dd 01 89 bd
       0.15344109 0.08799532 0.054857172 -0.066898085
000050 72 c8 7c 3e e0 c2 25 3e e1 7c d6 3d bb 50 14 3d
       0.24685839 0.1618762 0.104730375 0.036209803
000060 d9 09 d6 3d 11 e1 f4 3b bc 9d 96 bd 30 c1 39 be
       0.10451097 0.007473119 -0.07354304 -0.18140101
000070 bf 0a 8f be 17 68 20 be ff 41 c0 3d 96 c0 db b9
       -0.27937886 -0.15664707 0.09387588 -0.00041914423
000080 06 3e 6f bd 47 a4 7e be bc 5a 13 be f1 64 89 3d
       -0.05840876 -0.24867354 -0.14390081 0.06708706
000090 8e 36 cb bb 14 78 19 be 97 40 84 be 29 6a a1 be
       -0.006201572 -0.14987212 -0.25830528 -0.31526306
0000a0 b8 1d a2 3d 20 2e de bd fa f2 a5 bd dd 42 f4 bd
       0.07915825 -0.108486414 -0.08102985 -0.11926816
0000b0 61 92 93 be 45 27 eb 3c 3b f2 a4 bd ff 77 90 bd
       -0.28822616 0.028705249 -0.08054014 -0.070541374
0000c0 f1 f2 d4 bd 78 0c 69 be e4 22 a3 3d e5 08 d7 3d
       -0.103979 -0.22758663 0.07965639 0.10499743
0000d0 d2 75 d8 3d a3 1a 25 3d a6 d3 f4 bc 82 3a cc 3d
       0.105693474 0.040308606 -0.029886078 0.09972097
0000e0 bc 3b 5d 3e 8c 95 00 bd e1 26 2e be c3 ce 17 bd
       0.21604818 -0.03139262 -0.17007019 -0.037062418
0000f0 35 8d 95 3e 89 21 41 3e 6e a7 93 3d da 9f 09 be
       0.29209295 0.18860449 0.07209669 -0.13439885
000100 6a 13 f1 bd 8a ee 44 3e 00 e4 2a 3d 27 f4 b2 3a
       -0.11771281 0.1923162 0.041721344 0.0013653085
000110 fb 70 e4 bd 96 2a cf bd 89 97 45 3e 85 5b 3b 3e
       -0.11154362 -0.101155445 0.19296087 0.1829663
000120 6e d3 85 bb e6 16 a2 3d 0e 84 ec bd 2f 8d 26 bd
       -0.0040840423 0.07914524 -0.11548625 -0.040661987
000130 3d 18 d5 3d 72 db 7a 3e f7 06 3f 3e ec b8 03 3e
       0.10405014 0.24497774 0.18655 0.12863511
000140 17 e3 84 bd 77 8d 80 3e 91 cc f4 bd cb 62 2d be
       -0.064886265 0.2510793 -0.119530804 -0.16932218
000150 27 f9 98 3e af f0 69 bd 52 2e d9 3e 97 04 9b be
       0.29877588 -0.0571143 0.42418152 -0.3027694
000160 73 06 13 bf 2f ab c9 3e 50 be 21 3e 03 e1 c1 3e
       -0.57431716 0.39388415 0.15795255 0.37866983
000170 2c 09 aa be 08 23 1b bf b2 e3 d7 3e f5 4e a0 bd
       -0.33210123 -0.6060033 0.42165905 -0.0782756
000180 56 dd 8a 3d 39 45 18 3d 40 8a fd be be d5 8d 3d
       0.06780498 0.03717539 -0.4951954 0.06925534
000190 0e 65 1e be 7d 7c 39 bd 8e 9d 26 bd b0 4a a5 bd
       -0.15468237 -0.045284737 -0.0406776 -0.08070886
0001a0 13 fd 22 be e7 d9 3d 3d 76 e4 1d 3e 54 ca 9c be
       -0.15916853 0.046350386 0.15419182 -0.30623114
0001b0 fc 64 aa be 99 6e 48 3e 01 f1 12 3d 32 c6 e8 3e
       -0.3328017 0.1957344 0.03587437 0.4546371
0001c0 09 96 93 be bc 6a 14 bf 16 e1 b3 3e 42 7f a7 3e
       -0.28825405 -0.57975364 0.35132664 0.32714278
0001d0 63 ff de 3e 8a d1 70 be 8c 7a 10 bf 8d 07 bc 3e
       0.4355422 -0.23517433 -0.5643699 0.3672451
0001e0 87 5a 4a 3e 9f 4c 42 3e 13 d7 bb 3d 5f 06 a5 be
       0.19761096 0.18974541 0.091718815 -0.32231423
0001f0 98 70 86 3e 42 cc bd bd fa 44 4a bd d8 92 26 be
       0.26257777 -0.09267475 -0.049382187 -0.16266954
000200 5a d8 93 bd d3 fc 20 be f8 9c 92 bd 8a f6 8d 3e
       -0.07219 -0.15721445 -0.07158846 0.27727157
000210 e6 72 0c be a7 b0 6f be 06 81 4b 3e 1e 21 4e bc
       -0.13715705 -0.23407231 0.19873437 -0.012581138
000220 b5 32 aa 3e cc 08 88 be 5f 98 11 bf a2 7e 90 3e
       0.3324181 -0.2656921 -0.56873125 0.28221613
000230 95 e4 59 3e ec e2 cf 3e 69 81 3b be 5d e3 1f bf
       0.21278603 0.40602815 -0.18311085 -0.62456304
000240 44 52 ba 3e 4c c4 4d 3e 50 19 ba 3d f5 37 15 3e
       0.3639089 0.20094413 0.09086859 0.14572127
000250 1a da aa be d1 57 6a 3e 8d 08 e9 bd 08 ab 90 3d
       -0.33369523 0.22885062 -0.11378584 0.070638716
000260 c2 f0 67 3e 16 cc c8 3e 7b 27 d3 bd 07 2c 21 bb
       0.22650436 0.39218205 -0.10310265 -0.0024592893
000270 51 2f 65 3e 8b 3c a9 3d 79 0e 4c bc 10 d9 6f be
       0.22381331 0.08263501 -0.012454622 -0.23422647
000280 3b 2d 35 be 84 2c 14 be 3b 74 7f be 96 21 d8 be
       -0.17693035 -0.14470106 -0.24946682 -0.42213124
000290 03 ef a7 be 5b 3a c8 3b 23 d8 6e be cd fa 86 be
       -0.3279954 0.006110472 -0.23324637 -0.2636322
0002a0 a3 11 23 be 9c 1c 92 3d a6 72 e8 bd c3 04 37 be
       -0.15924697 0.07134363 -0.113499925 -0.1787291
0002b0 d9 c6 a1 bd ea 52 a1 3b 9f d2 39 bd 97 6b 80 3c
       -0.07899255 0.004923214 -0.04536688 0.015676303
0002c0 e5 4b 4a 3e 8d ea 83 3e 5c 4e 39 3e 63 fd 67 be
       0.19755514 0.25764886 0.18096298 -0.22655253
0002d0 fc 85 29 3e 39 b2 22 3e 72 db ab 3b 3d 8d 7f be
       0.16555017 0.15888299 0.005244666 -0.24956222
0002e0 e8 9f af be 50 9f 40 bd ea 55 3d be 61 51 c4 be
       -0.34301686 -0.047026932 -0.18489805 -0.38343337
0002f0 26 3f 00 bf 2c ab 82 be 39 a5 39 3c a1 31 f1 bd
       -0.50096357 -0.2552122 0.011330896 -0.11777044
000300 54 97 4f be be 13 49 3d 56 41 6c 3e 3d f1 88 3d
       -0.20272571 0.049091093 0.23071799 0.066866376
000310 16 e8 b4 ba 6b 1f 1c 3e 71 02 0e 3e 46 a2 ff 3d
       -0.0013802077 0.1524636 0.13868119 0.12482123
000320 80 0d 3b bc 57 44 8c 3d b3 c6 c7 3c a5 b7 d9 3d
       -0.011416793 0.06848972 0.02438674 0.106307305
000330 68 81 1c be 81 d2 05 3d bd 44 65 3e 5c 68 ed 3d
       -0.1528374 0.032671455 0.22389503 0.115921706
000340 52 77 e8 3d 24 97 0f be 95 3a 2e bd 1c 34 39 3c
       0.113508835 -0.140225 -0.042536337 0.011303928
000350 8c 43 ef bd 60 4f 54 be 21 f0 f5 bd fd d0 34 bd
       -0.116828054 -0.20733404 -0.120086916 -0.04414462
000360 2b ed 2e 3d 63 fb 47 bd bc b9 35 3e 51 81 b7 3e
       0.04270665 -0.048823725 0.17746633 0.35840848
000370 fd 02 12 3d 77 a8 0c 3e 88 87 23 3e e6 36 89 3e
       0.03564738 0.13736139 0.1596967 0.26799697
000380 06 24 fd 3d be 2e 06 be 08 1c 99 be 72 55 43 be
       0.123603866 -0.13103768 -0.299042 -0.19075564
000390 09 50 0f bd a3 d1 31 3e 04 31 7d be 09 f0 09 be
       -0.034988437 0.17365126 -0.24725729 -0.13470472
0003a0 43 54 4e be 9a c3 c4 bd 56 8e 0c 3c 14 42 14 bc
       -0.20149331 -0.096076205 0.008578857 -0.009048957
0003b0 ac 4e 57 bd 39 ec b4 3b cd c6 2f bd eb ef d4 bd
       -0.05256526 0.005521324 -0.0429142 -0.10397323
0003c0 1d e9 ef 3d 7c 86 54 3e 57 c0 7d 3e 59 cd cc 3d
       0.11714385 0.20754427 0.24780403 0.100001045
0003d0 49 ef 62 bc e1 2d 33 3e eb 39 78 3e ef 2a 7a 3e
       -0.013850995 0.1749797 0.24240844 0.2443044
0003e0 a1 c5 68 3e c2 18 c5 3d 06 ef 78 be 09 ca 54 be
       0.2273164 0.09623863 -0.2430993 -0.20780195
0003f0 9c e1 80 bd ac 19 85 3c 15 6f f1 3d 21 0b 19 be
       -0.062930316 0.016247593 0.11788765 -0.14945652

conv1.bias f4 [6]
000000 34 66 ab bd 29 fe 30 be 60 57 27 be 2d d5 88 be
       -0.08369103 -0.17284454 -0.16341925 -0.2672514
000010 99 2c b7 be 92 db bf 3e
       -0.35776213 0.37472206

conv2.weight f4 [16, 6, 5, 5]
000000 b3 b6 4c 3d 07 77 82 3d 86 05 49 be 52 28 07 be
       0.049978923 0.06370359 -0.19631013 -0.13198975
000010 11 ff 5c bd 53 07 b5 3d 79 dd b2 3c dc b1 62 be
       -0.053954188 0.088392876 0.021834122 -0.2213816
000020 2d 3e be 3c 39 6e 8b bd a3 96 32 3e a8 16 c6 bd
       0.023223007 -0.06808133 0.17440276 -0.0967229
000030 0c 3c 1f be a4 d6 96 3d b8 77 85 3d df 4e b2 3d
       -0.1555025 0.07365158 0.06516975 0.0870645
000040 0c 3c 41 bd d6 42 c1 bd 56 0a eb 3c 87 63 67 3d
       -0.047176406 -0.09436576 0.028691452 0.0564914
000050 4c 00 a8 3d 23 4e 89 bb a9 1c a5 bc 49 ad e9 bc
       0.082031816 -0.004190223 -0.020155268 -0.028525012
000060 1b 97 c4 3d 0e f6 de 3d b0 36 47 3e f9 9c 1f be
       0.095991336 0.10886775 0.19454455 -0.15587224
000070 4c 78 9c be cf 09 8b bd 44 f0 42 3e 6f 72 6c 3d
       -0.3056053 -0.0678898 0.19036967 0.05772632
000080 1f 94 8a be a1 94 19 be b3 74 48 bd 68 dc 03 3e
       -0.27066132 -0.14998104 -0.048939418 0.12877047
000090 be a4 3c bb 52 36 4b be 1c cf b4 bd f5 18 3b bd
       -0.0028784717 -0.1984494 -0.088285655 -0.045678098
0000a0 5b 87 b7 bc 5d f1 21 3b 68 d4 3e be 5b c0 15 bd
       -0.02240341 0.0024710514 -0.18635714 -0.036560398
0000b0 cf bc 94 bd a6 4f 93 3c 7e 97 b5 bd ec f1 22 bb
       -0.07262575 0.017982315 -0.088667855 -0.0024863435
0000c0 1f 3a da bc 13 0e 5d be 02 3b 22 bc e1 5c 00 3e
       -0.026639042 -0.215874 -0.009901764 0.1253543
0000d0 c6 dc 4b 3b d2 b7 a0 bd 55 7f a9 bd c4 97 11 3e
       0.0031106933 -0.07847561 -0.0827624 0.1421805
0000e0 58 ea a8 3d 1b dd 4d bd 27 ef f7 bd cf f1 29 bc
       0.082478225 -0.05025969 -0.121061616 -0.010372593
0000f0 a5 eb 75 3d 3c 4b 25 3d 54 bf e5 3c f2 45 62 bd
       0.06003918 0.040354952 0.028045334 -0.055242486
000100 c3 a9 93 bd 27 92 be 3d 4a c9 33 bd 96 a2 97 3c
       -0.07210114 0.0930522 -0.043893136 0.018510144
000110 59 d5 2d bd 66 71 81 bd bf 6c e1 3c 66 26 0c 3d
       -0.042439792 -0.06320457 0.027517674 0.034216307
000120 6c 8f 32 bd 11 0a a5 3b 57 24 b3 bd cf 17 04 be
       -0.04359381 0.0050366004 -0.08747166 -0.12899707
000130 82 0f 37 be 40 71 55 3d d0 18 a0 3e 89 60 7f 3e
       -0.1787701 0.052109957 0.3126893 0.24939169
000140 6b 1a 02 be 6c df 62 bd d1 45 1b 3e 21 26 07 3e
       -0.1270539 -0.055388853 0.15163352 0.13198139
000150 37 b6 5a 3d 25 01 22 be e4 77 ce bc cf 39 1b 3e
       0.05339643 -0.15820749 -0.025203653 0.15158771
000160 46 0f 51 3d 07 4f d0 bd c9 fe 2a bd 25 6a 41 3c
       0.051039957 -0.10171323 -0.04174689 0.011805092
000170 8b 80 07 3d e7 06 0d be 24 ea 07 be 28 90 b2 3c
       0.033081573 -0.13772164 -0.13272911 0.021797255
000180 11 c3 3b 3d 0e 6e 01 3e 2d db b7 bc 35 c3 52 3d
       0.045840327 0.12639639 -0.022443378 0.051455695
000190 a5 33 00 3e 0a 30 03 3d ec d9 c1 3c c4 04 00 be
       0.12519701 0.032028235 0.023663484 -0.12501818
0001a0 8a 8b ef bd be c7 17 3e 8a 5e 81 3c e0 a5 b1 bd
       -0.11696537 0.1482229 0.01579215 -0.08674216
0001b0 a3 a9 01 3d 88 fe 7b bd 04 de 39 3d 40 b7 d6 bc
       0.03165592 -0.061522037 0.045377746 -0.026210427
0001c0 12 c7 bf bc 7f 3f ac bd 5f 4f 9b 3d 1a 1c 8b 3c
       -0.023410354 -0.084105484 0.07583498 0.016981173
0001d0 08 30 6c bd 39 5c a3 bd 8c d3 82 3d c1 e2 9a bc
       -0.057662994 -0.079765745 0.063880056 -0.018906953
0001e0 7b 98 c5 bd a4 23 d3 bd 47 c5 a4 3c 27 c1 a7 3c
       -0.09648224 -0.10309532 0.0201136 0.020477844
0001f0 38 35 14 3d ce f6 ab be 2d 52 8a be 3c ae ea bd
       0.036183566 -0.33586735 -0.2701582 -0.11459014
000200 02 13 66 3c 48 7e 4e 3d d7 bb d2 be 8e 85 8f be
       0.014042618 0.0504134 -0.41158935 -0.28031582
000210 cc 6c 64 bd 15 58 2a 3e 12 e1 70 3e a4 95 c3 be
       -0.05576782 0.16635163 0.23523358 -0.38200104
000220 4c 9f 61 be ba 22 8e 3d 46 48 42 3e 8c 8d 8a 3e
       -0.22033423 0.06940217 0.18972883 0.27061117
000230 9d 46 a4 be cb 39 e8 bd 11 fc fd 3d a4 be f7 3d
       -0.32085124 -0.11339148 0.124015935 0.12096909
000240 17 ba 93 3e b7 4d db bd 88 cc cd bd b8 53 e9 3d
       0.28852913 -0.10708182 -0.10048777 0.11392921
000250 e1 d2 3c 3e 56 73 40 3e cc af 64 3d 13 5c 50 3e
       0.18439819 0.18793997 0.055831715 0.20347624
000260 f7 c8 e8 3c 88 cd 22 3d 07 21 34 3e c9 63 0f be
       0.02841614 0.03974679 0.17590724 -0.14002909
000270 94 ed a6 3b 13 00 66 3c e4 5a a5 3d 2d 2f 0a 3e
       0.0050942395 0.014038104 0.08073977 0.13494559
000280 2e a3 fb bd 2e b2 2a be 18 22 4d 3d 25 ca 66 3d
       -0.122869834 -0.16669533 0.050081342 0.056345124
000290 93 d2 6c 3e 95 bb ba bd 17 10 15 be 65 fb b5 3c
       0.23127203 -0.0911781 -0.14556919 0.0222146
0002a0 72 c0 6a bd 24 07 80 3e 2f c4 73 bd a2 bc 06 3e
       -0.057312436 0.25005448 -0.059513267 0.13157895
0002b0 3f 51 07 3e f3 fb 84 3d c7 36 e7 3d 01 cf 9b 3d
       0.13214587 0.06493368 0.11289745 0.07607842
0002c0 e1 83 39 3e 58 89 0e 3e 3c 7c 64 3d 9f 5f 2a 3c
       0.18116714 0.1391958 0.05578254 0.010398774
0002d0 43 e2 90 bd 41 6d ee 3c 15 77 45 3d cd e8 cc 3d
       -0.07074406 0.02910483 0.04820927 0.10005341
0002e0 08 76 a5 3d f9 f9 a8 bd 26 29 1f 3c d4 f8 8b bd
       0.08079153 -0.082508035 0.0097144 -0.068345696
0002f0 79 eb 25 3e 4b 81 e2 3b ed 58 87 3d 02 b5 f2 bc
       0.16203107 0.0069123856 0.06608758 -0.029627327
000300 86 4c fe 3d bc 41 c6 bc 7e 52 5c 3c 64 ae 17 3d
       0.124169394 -0.024201266 0.013447402 0.037031546
000310 1b 36 87 3e 93 5d cd 3c de a1 0b be c8 9a da 3d
       0.26408467 0.025069034 -0.13635966 0.106740534
000320 4c 94 8c be 67 61 43 be 2c ca 72 be 01 b9 ea bd
       -0.27456892 -0.19080125 -0.23709935 -0.11461068
000330 3f 48 07 3d 39 a2 7f be 9a 52 12 be 51 1e 3f be
       0.033027884 -0.24964227 -0.14289322 -0.18663909
000340 e2 49 1c bd b2 5e 20 3e 9e e7 04 be e6 38 09 be
       -0.038156398 0.15661123 -0.1297898 -0.13400611
000350 d1 8e 47 be 89 ed f4 bc 97 b7 72 3e af dc 39 be
       -0.19488074 -0.029898422 0.23702846 -0.1815059
000360 53 99 36 be 28 d5 92 3d 1c 45 b3 3d d2 00 4c 3d
       -0.17831926 0.071695626 0.08753416 0.04980547
000370 30 c1 e0 bd 90 76 12 3e 16 5f 7a 3e 21 53 2a bc
       -0.109743476 0.1430304 0.24450335 -0.010395796
000380 39 ed 0e bd 65 43 da bd d7 10 6d 3d 89 37 a5 bd
       -0.034894202 -0.10657386 0.057877388 -0.08067233
000390 0b e8 37 bc 0f 31 b4 bd 30 78 2f bd e0 e4 bb bd
       -0.011224757 -0.0879842 -0.04283923 -0.09174514
0003a0 c9 10 b2 bd 97 04 05 bc 00 72 7e 3d 24 19 24 be
       -0.08694608 -0.00811877 0.062120438 -0.16025215
0003b0 7f d5 f5 bc bb d7 61 bd 72 d4 f2 bd 4f aa 2c 3b
       -0.03000903 -0.055137377 -0.11856927 0.002634663
0003c0 a2 9c d5 bd ff 61 c2 bd 0c d7 8f bd 34 c2 9b bd
       -0.10430266 -0.094913475 -0.07023439 -0.07605401
0003d0 c7 7f d6 39 9e 37 2a be 7b e8 bd bd 0c 42 4e 3c
       0.00040912462 -0.16622779 -0.09272858 0.012588989
0003e0 a2 98 96 3d 8c 2d c5 bd b8 c8 7d be e3 5a 60 be
       0.07353331 -0.09627828 -0.247836 -0.2190967
0003f0 50 5e 32 be 2c 67 00 3d 49 e1 82 3e 20 63 87 be
       -0.1741879 0.031348392 0.25562504 -0.26442814

conv2.bias f4 [16]
000000 fe d5 e7 3d 54 1f 34 3f 15 47 e9 3c 80 11 ca bd
       0.11320113 0.703603 0.028476277 -0.09866619
000010 a9 eb a4 3c b5 75 40 bd d3 35 0d 3f 53 36 df 3d
       0.020131903 -0.046987254 0.55160254 0.108990334
000020 dd 8e c9 bd 5c 69 97 be 65 75 64 bf 0c 89 5a 3f
       -0.09841702 -0.2957257 -0.8924163 0.85365367
000030 36 e5 d9 3a 7f c4 ba 3d f3 91 9f be 1e 8b 61 bd
       0.0016624096 0.0911951 -0.31166038 -0.055064313

fc1.weight f4 [120, 400]
000000 2b 72 5a 3c a7 50 bf 3b 22 45 5f 3d 8e 05 3d 3c
       0.013332884 0.005838472 0.05450929 0.011536969
000010 fb 18 df bc 8c 7a 4a bd 00 2a 71 bc ac 41 70 bc
       -0.027233591 -0.049433276 -0.014719486 -0.014664095
000020 8d 1e 07 bd b9 92 9a bd 0c 86 28 bd 91 0f 42 bd
       -0.03298812 -0.075475164 -0.041143462 -0.047378127
000030 ff 30 89 3d 56 5d aa 3c 12 e8 19 bd 0b d8 55 bd
       0.066987984 0.02079646 -0.037574835 -0.052207988
000040 7f 61 09 3d 6c f3 83 bc f6 be 3b 3d e3 45 b1 bd
       0.033540245 -0.016107284 0.04583641 -0.08655908
000050 0f a1 31 3d 64 e2 c2 bb 4e 8f 08 3d e5 5d 0c bd
       0.043366488 -0.005947398 0.03333979 -0.034269232
000060 84 0c 84 bc a2 bc 42 3d 55 44 86 bb aa 69 be 3d
       -0.01611925 0.047543176 -0.0040975013 0.092974976
000070 bd df 65 3d 23 a3 44 3d 69 fd 55 3d 9c 6e 3a 3d
       0.056121577 0.04800714 0.052243624 0.04551564
000080 bb 85 d2 3d 1f 1e 08 bc d5 66 bb 3c 6b ec 91 3d
       0.10279413 -0.008307963 0.022876183 0.07125171
000090 68 92 71 3d 3f 16 22 3d 85 0e 9c 3d 3f 99 0b 3d
       0.058977515 0.039571997 0.07619957 0.034081694
0000a0 da ad cd bb ae f8 29 3d c2 06 8f 3c 23 a5 8f 3d
       -0.0062768282 0.041496925 0.017459277 0.07013919
0000b0 39 dc 16 3d c6 40 94 3d b0 20 db bb 74 2f b5 3c
       0.036831114 0.07238917 -0.0066872463 0.022117354
0000c0 34 1b aa bc fb 58 92 bb 58 98 da bb 0d bd 0f bb
       -0.020764925 -0.0044661737 -0.006670993 -0.0021932751
0000d0 f1 59 1d 3d 8c e0 35 bd 7f 9b 5d bc 9d c5 5e bc
       0.038415853 -0.044403598 -0.013525843 -0.013596919
0000e0 61 63 11 bd 81 69 0e 3d d6 71 8e 3d fb e2 78 bc
       -0.035495166 0.034768585 0.06955306 -0.015190835
0000f0 ec a7 0d bd 79 5d c3 3c d4 43 49 3d 5b b9 3c 3d
       -0.03458397 0.023848282 0.04913695 0.046075206
000100 b1 38 5e 3d 7e 2c 9f 3c 22 17 0e bc 50 ac 28 3c
       0.054253284 0.019430395 -0.0086725075 0.010294989
000110 5b ed 36 bc 2b 71 16 bd d2 3f 46 bc ba 5b 4c bd
       -0.011164988 -0.03672902 -0.012100177 -0.049892165
000120 45 78 2e 3d 66 65 41 bd ab b4 67 3c 85 7b 56 bd
       0.042595167 -0.04721584 0.014142196 -0.05236389
000130 f8 af 9c 3c a7 48 2a bd d1 67 8d bd a4 76 a8 3c
       0.019126877 -0.041573193 -0.06904567 0.020564385
000140 33 c8 2b bd 00 c6 de 3c 75 b5 56 3d f5 76 e7 3c
       -0.04193897 0.027194023 0.052419145 0.028254965
000150 e2 23 a9 3c 79 2c 2f bd 7a b3 82 bd 4b 07 96 3d
       0.020646993 -0.04276702 -0.06381889 0.0732561
000160 42 fd 0f bd f2 5a 64 bc 11 37 32 bd a3 52 9d bd
       -0.035153635 -0.013937699 -0.043509547 -0.07681777
000170 62 7e 8a ba e1 a4 1f bd 33 65 b9 3c 5f 04 10 bd
       -0.001056623 -0.0389756 0.022631263 -0.03516042
000180 85 fc 35 39 07 50 7f 3d b6 18 80 bd 26 34 80 3b
       0.00017355576 0.06233218 -0.06254713 0.0039124666
000190 d3 04 2f bc c2 c6 ba bc 4a 9d cc bd aa 5d 07 bd
       -0.0106823025 -0.022799853 -0.09990938 -0.03304831
0001a0 07 ce 01 bd 16 85 5b bd 51 bb 82 bd a4 f1 b1 bc
       -0.031690624 -0.053593718 -0.06383384 -0.021721669
0001b0 5c e6 34 3c 1b fd 9c bd cd 17 ea 3c 6c eb ce 3b
       0.01104125 -0.076654635 0.028575802 0.0063146856
0001c0 42 ae 11 3c b1 c4 6f 3d c9 bd 0b 3c 5d 56 4a bc
       0.008891644 0.05853719 0.008529135 -0.012349692
0001d0 8f 4c 59 3d 26 9d 4c 3d b3 84 14 bb 90 5c a1 bb
       0.053051528 0.049954556 -0.0022662103 -0.0049243644
0001e0 4b d3 8a bc ee cf 7f 3d 49 34 07 bc d4 fd 08 bc
       -0.016946455 0.062454157 -0.008252212 -0.008361299
0001f0 a0 a1 63 bd f3 02 42 bd 1c 3e 6d bc e7 cf 84 bd
       -0.05557406 -0.047366094 -0.01448014 -0.06484967
000200 95 7c ba bc c7 c3 54 bd a3 ff 5e bd db c2 1f bd
       -0.022764483 -0.05194452 -0.054443013 -0.039004188
000210 1f 83 7a bd 7a 13 e7 ba d9 04 96 bc af 36 02 3c
       -0.061160203 -0.0017629706 -0.018312858 0.007947608
000220 86 b6 66 3d d4 37 bb bc 21 f1 42 bd a4 8c 2c 3d
       0.05632641 -0.02285377 -0.04759324 0.042126313
000230 7f b2 f7 3b 6d 32 0d bd 55 07 d8 3c 0a 2a 8d bd
       0.00755912 -0.034471918 0.026370684 -0.06892784
000240 95 d5 92 3c 05 a4 57 bd cf 9c 14 3d 21 70 18 bd
       0.01792411 -0.052646656 0.036282357 -0.03721631
000250 3d d6 39 3c cb f0 00 3c 18 3e bf bc a0 22 29 bd
       0.011342582 0.0078699095 -0.023345038 -0.041292787
000260 9d 31 1e 3c 6d 85 81 bb 2e 85 7b bd 4d 22 56 3c
       0.009655383 -0.003952673 -0.061406307 0.013069701
000270 9c 6a 24 3d 08 f8 bc bc e7 44 96 3a d0 1e 2d 3d
       0.040140733 -0.02306749 0.0011464626 0.042265713
000280 02 03 75 3d ce 52 5e 3d 1f fc b4 3c 7d 75 08 bc
       0.05981732 0.054278187 0.022092877 -0.008328793
000290 2a 4b 27 3d ed bd 72 3c 45 56 34 ba 4c 49 e2 bc
       0.040843166 0.01481579 -0.000687931 -0.027622841
0002a0 6a f0 1d 3d 03 f7 23 3d 5f e3 de bc 61 3f 4d 3d
       0.038559355 0.04003049 -0.027208028 0.05010927
0002b0 2b 44 31 3d 1e 7f 0b bd 03 a1 56 bd 03 71 ac 3c
       0.0432779 -0.034056775 -0.052399646 0.021049982
0002c0 92 c9 45 3d 98 66 62 3d 9e 6c 88 3d 64 51 c4 3a
       0.048287936 0.055273622 0.06661342 0.001497787
0002d0 95 da 94 bc 42 e3 10 bd 9a 26 15 3d 0d 9b 25 3d
       -0.018170634 -0.03537298 0.036413766 0.04043107
0002e0 7c 10 ca bc ad 10 0a bd 8c 6e 3e 3c b1 de 48 3d
       -0.024666063 -0.03370731 0.011623036 0.0490405
0002f0 cb 5c e3 3c 06 6c c1 bb 08 2e bc 3c a7 a1 29 bd
       0.027754208 -0.00590277 0.022971168 -0.04141393
000300 c8 cc d2 bc 07 1c a8 bc 31 d8 dd 3c 88 fa 0b bd
       -0.025732413 -0.020521177 0.027080627 -0.034174472
000310 29 ba 72 3c ff ed b9 3c 44 f0 32 bd 69 53 f0 bc
       0.014814892 0.022696493 -0.043686166 -0.029336648
000320 e4 45 98 bc db b4 14 3d 95 ca 43 3d f9 c2 4d 3d
       -0.018588014 0.03630529 0.04780062 0.05023477
000330 ee 46 8f 3d 69 16 8f bb ff d1 f0 3c 2c e4 74 bc
       0.06995951 -0.004366685 0.029397009 -0.014946979
000340 86 f4 c5 3c 46 96 31 bd a3 91 cf bb 8b 79 13 3d
       0.02416445 -0.043356203 -0.0063345 0.036004584
000350 dc e5 02 3a 28 1b 26 3b 5f 62 c8 bb 37 7e 72 3c
       0.0004993358 0.0025345776 -0.0061152424 0.0148006
000360 e4 9e a2 3b 0a 70 16 3d 8e bd 6c 3d c9 1c 8b 3d
       0.004962789 0.036727943 0.05779796 0.067926
000370 25 9e e9 3c 09 f8 6a bd 79 e1 0c bd e1 06 37 3d
       0.028517792 -0.05736545 -0.034394715 0.044684295
000380 fe c3 9c bc 0f 2d d0 3d 28 df af 3d b1 38 aa 3d
       -0.019136425 0.10164844 0.085874856 0.08311594
000390 fa e2 8b 3d d8 32 c6 3d 99 5d 97 3d 8b 43 0a 3d
       0.06830402 0.096776664 0.07390899 0.03375582
0003a0 40 34 fd bb 16 4c 19 3b 21 19 7f 3d f8 26 45 bd
       -0.007727176 0.0023391298 0.062279824 -0.048132867
0003b0 d1 c9 bf bb f4 6c 3d bc 5a ab 06 bd c5 1f fa bc
       -0.005852916 -0.011561621 -0.032878257 -0.030532727
0003c0 6a d9 20 3d 41 44 81 bc 41 42 71 ba 1b 77 6d bd
       0.039269842 -0.015779616 -0.0009203293 -0.057974916
0003d0 ad 6e 3c ba 5c b0 09 3d 01 99 ce 3c ac ca 14 bc
       -0.0007188123 0.033615455 0.025219442 -0.009081524
0003e0 40 3d 9e bb b5 11 de 3c 35 0c 0a be ac bb c6 bd
       -0.004829079 0.027108053 -0.13481219 -0.09703764
0003f0 45 c4 a8 bd 12 70 18 bd 10 00 cf bc f8 19 5e bc
       -0.082405604 -0.037216254 -0.025268584 -0.013555996

fc1.bias f4 [120]
000000 94 50 09 3e 47 97 d9 bc e6 a0 15 bd c6 f5 87 bd
       0.13409644 -0.026561392 -0.036530398 -0.066386744
000010 ff f4 a7 bc bf d0 41 3d 24 10 aa 3d a1 38 5c 3a
       -0.020502565 0.047318216 0.0830386 0.00084007723
000020 25 4f 80 bd 82 89 5c bc 34 68 1c bc 04 3a ec bc
       -0.062650956 -0.013460519 -0.009546328 -0.028836258
000030 c7 91 8d 3c a0 22 8b 3d 66 b2 63 bb 52 88 2a bc
       0.017281426 0.067937136 -0.0034743785 -0.010408478
000040 b8 aa 69 bc 13 4e 48 3e d3 c3 11 3d bb e5 ec 3d
       -0.014261894 0.19561033 0.035587143 0.11567255
000050 5c dd 0a be 17 0c 12 3d 72 4e 90 bc 09 0a 1a 3e
       -0.13561004 0.03565606 -0.01761553 0.1504289
000060 a9 e2 a6 bc 84 b5 84 3d 95 32 89 3c e9 59 08 3e
       -0.020371752 0.06479934 0.016747752 0.13315548
000070 61 7a 44 3d 99 de e4 3d 4c d2 02 3e 11 c8 76 3d
       0.047968272 0.1117527 0.12775534 0.060249392
000080 f2 48 a2 3d 59 d6 e8 bc c6 36 25 3d 7f db e6 bd
       0.079240695 -0.028422521 0.04033544 -0.11272334
000090 ef 27 ee bd 86 c8 1e bd 23 24 2d bd ee 67 c1 3d
       -0.116287105 -0.038765453 -0.04227079 0.09443651
0000a0 ea 88 dd bb 64 a6 61 bc c1 ef 05 be 7e 3a 21 bd
       -0.006760706 -0.013772581 -0.1307974 -0.039362423
0000b0 d0 0b 9e 3d ef 75 23 bd 11 76 03 3d db 69 77 bc
       0.07717097 -0.039907392 0.03209502 -0.0151009215
0000c0 fe 2b a7 3d 4f 7f 86 3d 00 10 56 3c 81 4c aa 3d
       0.08162688 0.06567251 0.013065338 0.08315373
0000d0 9b f7 13 bd df b3 04 3c ef 4d 5e bd 4e e6 14 bd
       -0.036124807 0.008099525 -0.054273542 -0.03635245
0000e0 1e 7e 84 3d 9e 24 b1 3c 38 33 d7 3d 06 68 56 3d
       0.064693674 0.021623906 0.10507816 0.0523453
0000f0 1d dc 53 bd f7 01 a2 3c cc 79 f7 bb 12 97 62 ba
       -0.05172359 0.019776328 -0.007552361 -0.0008643727
000100 a7 ce 4c bc 4b 46 e9 bd 6e 08 0a bd a7 18 90 3c
       -0.012500442 -0.113903604 -0.033699445 0.01758988
000110 ca b9 0e 3d d0 bb ae 3c 94 fe 28 3e 03 05 52 3d
       0.03484515 0.02132979 0.16503364 0.05127431
000120 5a b4 eb 3d d3 69 5c 3e b8 c1 16 3d c1 ab 99 3d
       0.11509009 0.21524744 0.03680584 0.075034626
000130 2f e7 3a bd 77 8c 02 3c f4 5d e9 3c 5c 05 40 3c
       -0.04563063 0.00796806 0.028487183 0.011720028
000140 91 99 5c bd af 77 9f 3d 0b 0e f4 3d 70 3c 6c 3e
       -0.05385739 0.077865 0.11916741 0.2306993
000150 85 80 1e 3d 7a 0c dc bc b6 b9 f5 3c 41 22 df bc
       0.038696785 -0.026861418 0.02999578 -0.027238013
000160 1f 30 df 3a 45 57 6e bd d3 a6 88 3d d5 43 45 be
       0.0017027891 -0.058188695 0.06672444 -0.19264157
000170 60 aa 95 ba 62 54 29 3d 84 ac 04 3e 6f b6 5a bd
       -0.0011418574 0.04134024 0.12956434 -0.05339664
000180 0c b6 2c 3d 5a c3 d6 bd ff 8d 45 3d 97 35 32 bd
       0.0421658 -0.10486479 0.04823112 -0.04350814
000190 32 41 68 bc ab 9d 0f 3d 52 2c 26 bc a1 04 86 bd
       -0.0141757 0.035062473 -0.010142403 -0.06543852
0001a0 8d 3f ff 3c 8f 7d 95 3c bb 01 14 3d fe c2 cd 3d
       0.031158233 0.018248348 0.036134463 0.100469574
0001b0 82 86 6a be 92 19 40 3d 37 09 f5 3d 4f 87 92 3d
       -0.22902873 0.046899386 0.11964648 0.07154714
0001c0 58 d6 e0 3c 77 b0 61 bd a7 4b 4f 3e 17 06 df 3d
       0.027445957 -0.05509993 0.20243703 0.108898334
0001d0 ac 19 03 bd d6 a9 a5 3c cd e9 bb 3d ce 49 4a 3c
       -0.032006904 0.020222586 0.09175453 0.012346698

fc2.weight f4 [84, 120]
000000 75 0e 82 3d 84 3e dc 3d b1 9e 40 b9 e1 8d b2 3c
       0.06350414 0.107541114 -0.00018369664 0.021796169
000010 47 72 a7 bd a7 cb 3a 3d f6 28 93 3c 60 a5 9a 3d
       -0.081760935 0.045604374 0.017963868 0.07551074
000020 4d 1a a4 bd c6 50 9e bd ac 28 3c 3d 0d fd 90 3d
       -0.08012829 -0.0773025 0.045937225 0.070795156
000030 f2 5b 0a 3d ba 56 c6 bd e4 52 69 bd 24 ef 42 bd
       0.033779092 -0.096845105 -0.056963816 -0.047591344
000040 94 27 83 3d 6b cb d2 bd 8b bd fe 3c ac e4 91 3d
       0.06404033 -0.10292705 0.03109624 0.07123694
000050 2f ce 87 ba 52 11 2b b9 6b 2f 39 bd ff 3a 93 bc
       -0.001036113 -0.00016314283 -0.045211237 -0.017972467
000060 b5 fd a4 bd ce 77 8c bc 7d 00 f5 3d de aa 09 bd
       -0.08056203 -0.017146971 0.11962984 -0.033610217
000070 58 8a a1 3c 8e 20 b0 3d b6 b8 2f bd 1a f7 c0 3d
       0.019719288 0.08599959 -0.042900763 0.09422131
000080 b9 7f bb 3c 42 d3 cf bb 05 17 5e 3d c9 d2 87 3d
       0.022888051 -0.0063423226 0.054221172 0.06632001
000090 2f d5 49 3c e0 22 c2 3c f1 db 7b 3d 35 07 12 be
       0.012318893 0.02369827 0.06148905 -0.14260562
0000a0 4b 91 a9 bd c9 34 a1 bd 9e e8 28 be 75 c5 16 3e
       -0.082796656 -0.07871396 -0.16494986 0.14723761
0000b0 91 42 f8 3d 92 b1 a1 bd a5 6a ec 3d 31 a4 1d 3d
       0.121220715 -0.07895197 0.11543778 0.038486663
0000c0 23 51 22 3e 5e f2 b7 b9 c2 84 a2 3d 0d e7 9d bd
       0.15851264 -0.00035085058 0.07935478 -0.07710085
0000d0 44 39 60 bd 4a f4 4a 3d aa 5d 8f bd 59 a6 48 bd
       -0.054742113 0.04954938 -0.07000287 -0.048986766
0000e0 89 e7 15 3c 2b 17 d3 bd 54 96 42 3d 80 b8 a9 3c
       0.009149441 -0.10307153 0.047506645 0.02071786
0000f0 d2 79 65 3d cd d8 11 3b c0 01 da bd d8 d1 89 bd
       0.05602438 0.0022254467 -0.10644865 -0.06729478
000100 d6 82 c8 3d 24 e8 6a bd de 03 db 3b cd ab 7d bd
       0.0979058 -0.057350293 0.0066838106 -0.06193142
000110 26 52 2c bd 03 69 be 3c d9 4a 56 3d d2 6c b3 bd
       -0.04207053 0.023243433 0.052317474 -0.0876099
000120 61 73 bd bd 58 32 a5 bd 11 b8 c1 3c 0b b9 ce 3d
       -0.092505224 -0.08066243 0.02364734 0.10093888
000130 cb ff 97 bb 5a 05 d1 3c 39 89 9c 3d a4 03 fb bc
       -0.004638647 0.025515247 0.07643361 -0.030641384
000140 68 12 4c 3e cb c6 cf 3d fa 0d af 3d f9 87 63 bd
       0.19928896 0.101453386 0.08547588 -0.055549596
000150 fc 0d 2e 3d 62 cc 2d be 8d b1 0d 3e 50 d3 41 3d
       0.042493805 -0.16972497 0.13837261 0.047320664
000160 73 c9 f2 3d fe 94 a1 3d 65 02 9c 3d 9b f7 c1 bd
       0.1185483 0.07889746 0.07617644 -0.09471055
000170 3f ed 95 bd d5 4e 07 bc 05 c6 6b 3d 3f a1 9a bb
       -0.07320642 -0.008258541 0.057561893 -0.004718929
000180 7b 17 a0 3c a1 cb 0a 3e 96 12 a6 bd e2 cd 80 3d
       0.019542446 0.13554241 -0.08109014 0.06289269
000190 b5 e0 c1 bd 8c aa 9e bd 6a 87 9c ba 41 a0 09 bd
       -0.094666876 -0.07747373 -0.0011942212 -0.033600096
0001a0 ea 53 9b bd 52 a5 b0 3d 71 d1 5a ba 29 0d cc 3c
       -0.07584365 0.08625282 -0.0008347249 0.024908619
0001b0 58 b6 15 3c 44 1b d5 bc 6e 4e f2 bd 36 10 8d bd
       0.009137712 -0.026013978 -0.118313655 -0.068878576
0001c0 f1 e0 9b 3c 25 ff 03 3e 16 3a c0 bd d9 d0 d1 3c
       0.019028159 0.12890299 -0.09386079 0.025612282
0001d0 4a 78 4f bd ac 4f 36 bd 7f a1 87 bd 28 ad d0 bd
       -0.050651826 -0.044509575 -0.066226 -0.10189277
0001e0 f4 e6 d1 3d 86 e5 fd 3c 44 e2 c0 3d c8 6a 08 bd
       0.10249129 0.030993234 0.09418157 -0.03330496
0001f0 8b 97 36 3b 7a d7 0f bd 30 f7 d3 3d dc 7a 64 3b
       0.0027861323 -0.035117604 0.10349882 0.003486327
000200 11 35 c1 3d ff fa 8c bc 87 8e 10 bb 3c 57 dd 3c
       0.0943395 -0.017209528 -0.002205761 0.027019136
000210 39 c0 ae 3d ff 96 5e bc 86 62 51 3d d4 c2 ab bd
       0.08532757 -0.013585805 0.05111935 -0.0838677
000220 41 67 a0 3b 63 88 a7 3c 68 da 8b bd 5c 6c 51 bd
       0.0048951213 0.020450776 -0.06828767 -0.05112873
000230 c2 88 37 3b 32 db 8e bd 86 f8 9e bd 59 3c 4e 3b
       0.0028005098 -0.06975402 -0.07762246 0.0031469075
000240 1b f2 5c bd 91 68 09 bd 86 24 93 bd 6f 09 49 bc
       -0.053941827 -0.033546988 -0.07184701 -0.012270316
000250 99 c3 c9 bb 59 68 81 bd 96 90 51 bc 0a 89 4b 3d
       -0.0061573503 -0.06318731 -0.01279082 0.049691238
000260 d4 79 8e 3c e4 e1 69 bd b9 51 48 bb 53 a8 06 3e
       0.017392077 -0.05710019 -0.0030566289 0.13150148
000270 97 39 09 3e de 79 b2 3d 82 03 2b 3d 43 72 c8 bd
       0.13400875 0.087146506 0.041751392 -0.09787419
000280 b3 73 9d bd 0c 2b 6b bd 1f 6f 17 be 9a f6 25 bd
       -0.076880835 -0.0574141 -0.14788483 -0.04051838
000290 66 4c a1 bd 69 f8 91 bc 60 4a 8e 3d 04 c3 97 3d
       -0.078759 -0.017818647 0.0694778 0.07410243
0002a0 17 e8 93 3d 87 b7 0e bc d3 41 a8 3c 8a 33 72 bd
       0.07222002 -0.0087107485 0.0205392 -0.059131183
0002b0 d0 72 92 3d 5d 4d 92 bd d3 a5 00 bd 2c d1 10 bd
       0.07150805 -0.07143662 -0.031408142 -0.03535573
0002c0 e8 ab 13 bd 1c bb a3 bd 15 6c b9 bd 5d a8 fa bd
       -0.036052614 -0.07994673 -0.09053818 -0.12239144
0002d0 c9 5e 1d 3c c8 de 41 bd 19 f1 14 bd 64 c2 ec bd
       0.009605118 -0.0473316 -0.03636274 -0.115605146
0002e0 c4 fc a0 ba 4c 65 b2 3b ae db 9c 3d 31 23 ec bc
       -0.0012282361 0.0054442044 0.07659088 -0.028825374
0002f0 93 d2 a5 bd e1 b7 f1 bd a5 82 73 3d 57 49 8e bd
       -0.080968045 -0.1180265 0.059450764 -0.06947582
000300 72 ec 9b bc 92 17 f5 bd 6b 24 af bd 13 2d 8d 3d
       -0.019033644 -0.11967386 -0.08551868 0.06893363
000310 2f 12 74 3c 1c 6e 83 bc 27 89 42 3d 6d 03 99 bd
       0.014896913 -0.016043715 0.04749408 -0.074713565
000320 6d cd 38 3c 09 7d 10 3e a4 00 85 bc b7 78 90 3d
       0.011279446 0.14110197 -0.016235657 0.070542745
000330 de 9a 3b 3d 40 79 a4 39 e4 c0 b7 3d 24 41 f4 bc
       0.04580199 0.00031370856 0.08972338 -0.029816218
000340 b3 c0 e7 3d 6a 2e bd bb 8e ec e9 3a 46 ba 42 3d
       0.11316051 -0.0057733553 0.0017846988 0.047540925
000350 9e 6e ad bc 39 ce ee bd a7 f0 ca 3d 30 82 ff 3c
       -0.02117091 -0.116604276 0.09909182 0.031190008
000360 26 cd 8b 3c 65 03 87 bc 19 44 64 bd 18 0a 8e bd
       0.017065596 -0.01648111 -0.055729005 -0.06935519
000370 11 03 5e bd d2 cf 18 3d e5 e4 b0 bd 86 9f 42 bc
       -0.054202143 0.037307568 -0.08637408 -0.011878854
000380 15 73 89 3d 28 2d 0f bd 22 e8 88 bc 0d b4 47 3d
       0.06711403 -0.034955174 -0.016712252 0.048755694
000390 5b 20 32 bd bd 3e 29 3d fa b8 2f be 3d e6 3c 3d
       -0.043487888 0.041319598 -0.17160407 0.04611801
0003a0 54 e0 c3 bd 2b eb ff 3d b6 1c 99 bd 54 19 44 bb
       -0.095642716 0.124960266 -0.07476179 -0.0029922323
0003b0 37 82 b3 bd 15 0f c3 3d a7 5a 34 bc 04 cc 2e 3d
       -0.08765071 0.09524361 -0.011007941 0.042675033
0003c0 ea bb b5 3d 3a 22 97 3d 46 42 26 bd d3 e8 9e 3c
       0.088737324 0.07379575 -0.040590547 0.019398129
0003d0 17 3e bb bd 45 85 46 bb 7c cd 86 3c 4f b3 16 3d
       -0.09142702 -0.0030291837 0.016455404 0.036792096
0003e0 c6 31 b9 bd 97 4e 79 3d b9 a7 cd 3c 67 6e 3f bd
       -0.09042697 0.060865965 0.02510439 -0.046736147
0003f0 9b 35 01 3d 9a 63 88 3c b7 1c 2f bd 03 6f aa 3c
       0.031545263 0.016649056 -0.042751994 0.020804888

fc2.bias f4 [84]
000000 eb b5 68 bc 41 ce fa bd ab dd e8 3d 9f 62 77 3d
       -0.014203529 -0.12246371 0.11370405 0.060396787
000010 87 6a c2 3e cd 2c f2 3d 2e 33 82 3d 45 9f 70 be
       0.379719 0.11824951 0.06357418 -0.23498257
000020 9a 4b 22 3e e1 4c 0c 3e 95 e2 91 bd 58 54 a3 3d
       0.15849152 0.13701202 -0.07123295 0.07975072
000030 71 4c ff 3d 51 26 72 bd b7 0d 8d bd be 54 a7 3d
       0.12465752 -0.059118573 -0.068873815 0.0817046
000040 83 a5 d0 bc 08 b0 5e 3e 3f 73 ab bd f9 22 15 3e
       -0.025469547 0.21746838 -0.08371591 0.14564122
000050 aa c9 4f 3e b8 d9 4e 3e d1 35 03 be 3d 57 d3 bd
       0.20291772 0.2020024 -0.12813498 -0.10319374
000060 1c 27 62 bb 4f d0 8e 3e a1 69 11 3b 1a b0 8b 3e
       -0.0034508174 0.27893302 0.0022188204 0.27282792
000070 de 82 14 3d 24 42 21 3e 18 5a dd bc 89 30 e9 3c
       0.036257617 0.15747887 -0.0270205 0.028465526
000080 1d 9d 92 bd 7b 9d 1b 3d 02 7b d9 3d 0a 29 b5 bd
       -0.07158873 0.037991982 0.10619165 -0.08845718
000090 ad ee 8d bd ef 32 27 bd d0 c0 e0 3d 42 3a fb 3d
       -0.069302894 -0.04082006 0.10974276 0.12266971
0000a0 54 3a 40 bd da f3 5f bd 64 b8 b9 3e 74 67 90 bc
       -0.046930626 -0.054675914 0.3627349 -0.017627455
0000b0 e8 ba 0e bc 3b f8 b2 bd 68 80 92 3e c1 c4 82 3e
       -0.008711554 -0.087387525 0.2861359 0.25540736
0000c0 25 51 a4 3d 9a db 99 bd f3 21 36 bb 12 3d b2 3d
       0.080232896 -0.07512589 -0.0027791231 0.087030545
0000d0 c2 bc 09 3e 7b 75 7c 3d 6c 1b b5 bd fc c1 81 bd
       0.13450912 0.061635476 -0.08843121 -0.06335828
0000e0 ef 1b 6c 3d 83 40 77 bd 18 97 21 3d 43 17 43 bd
       0.057643827 -0.060364258 0.039450735 -0.047629606
0000f0 7c 04 a5 bc 8c 30 9c bc 00 21 cd bc 07 2d da bd
       -0.02014374 -0.019066118 -0.02504015 -0.106531195
000100 84 90 c5 bd 3b 82 00 3d 32 e6 87 3e eb ae 3f 3e
       -0.09646705 0.031374197 0.26542813 0.1871907
000110 28 b8 e6 bd 09 7e d3 3d 9c 79 b5 bc 64 53 f0 3d
       -0.11265594 0.10326774 -0.022152714 0.117346555
000120 30 fb 65 3c e7 9a 97 3b d5 cb 81 3c 6b e4 1e 3e
       0.014036939 0.00462662 0.015844265 0.15516822
000130 be cc 58 bb aa 0b 91 3d ad 6e 7d 3e 55 bc eb bc
       -0.003308102 0.07082303 0.2474925 -0.028776327
000140 7e 28 07 be 4e 54 b5 bb bc 4f 73 3e 5b af 80 3e
       -0.1319904 -0.0055337315 0.23760885 0.25133786

fc3.weight f4 [10, 84]
000000 25 08 8c bd 3e 89 fd 3d ab db e0 bd d9 76 16 3e
       -0.06837491 0.123796925 -0.10979398 0.14693774
000010 33 09 82 be f0 34 36 be 52 47 2b 3e 7e 17 20 bd
       -0.25397643 -0.17793632 0.16726425 -0.039084904
000020 07 66 42 be e6 21 67 3d d9 90 51 3d ab 9e b1 3a
       -0.18984233 0.056428812 0.051163528 0.0013551315
000030 1e e3 0e be 63 fe 42 bd 69 71 c5 bd 80 e5 2c be
       -0.13953826 -0.047605883 -0.09640772 -0.16884422
000040 a1 94 1f bc 4d 3b c6 3b 2d 25 2e bd 43 ec 04 be
       -0.009740026 0.0060495497 -0.042515922 -0.12980752
000050 4a e5 cd bd a2 81 bc bd dc 80 d2 bd df b8 38 3e
       -0.10053499 -0.09204413 -0.10278484 0.18039273
000060 72 b0 d1 bd 39 cf a5 3d 7d d1 29 3d 29 6a 6b bd
       -0.102387324 0.08096165 0.04145955 -0.05747429
000070 6c a0 e1 3d 95 a2 2c 3e 34 0f 17 bd 64 83 01 be
       0.11016926 0.16858895 -0.036879733 -0.12647778
000080 7e 57 69 3c ac 3b c9 3b f6 2f cf bd 91 cb 82 3c
       0.014242051 0.0061411466 -0.1011657 0.015966209
000090 48 1e 73 bc 9d e5 2d 3c 86 da 2d 3e 8b 98 f9 3c
       -0.014838763 0.010613826 0.16977891 0.030468246
0000a0 8d 2e ec 3c 74 9a 3c be 1e 26 8a be 39 6a d2 3b
       0.02883079 -0.18418294 -0.26982206 0.006421354
0000b0 b4 f7 3f be d1 ec 1e 3e 5b ed 1a 3e fd fd 2f be
       -0.18746835 0.15520026 0.15129606 -0.17186733
0000c0 07 76 1e be dd 41 e7 3c d8 f4 d2 bd 2b d0 09 3b
       -0.15474711 0.028229648 -0.103006065 0.0021028619
0000d0 3e da b6 bd 22 e9 91 3d 69 4a 72 bd 79 9d 0a bd
       -0.08928345 0.07124545 -0.059152994 -0.033841584
0000e0 0e 25 c8 3d 8a 5e 34 3e 39 1d 31 3d d2 12 cd 3d
       0.097726926 0.17614189 0.04324076 0.10013355
0000f0 58 6a f8 bb e7 7e 1e bd c9 ca 08 3e c1 c4 64 3e
       -0.0075810365 -0.038695242 0.13358606 0.2234068
000100 02 e7 84 bd 54 8b 6e be 00 24 94 3e 0d cf 99 3e
       -0.06489374 -0.23295337 0.28933716 0.3004078
000110 48 f3 38 bd e7 47 2f be 1a 08 69 3e b0 71 45 3e
       -0.045153886 -0.17117272 0.22756997 0.1928165
000120 9e f9 cb 3d dc cd 15 bd d0 fc 45 3d 53 f1 9b 3d
       0.0995972 -0.036573276 0.048336804 0.07614388
000130 65 0e 1c 3d 6c f1 95 bd a2 be 83 3e 68 bd a3 bd
       0.038099665 -0.07321438 0.2573138 -0.07995111
000140 86 dc 7b 3e ad fb 06 bd 00 f2 eb 3d 50 2c 9c 3c
       0.24595842 -0.03295486 0.11520767 0.019064099
000150 48 7c b0 3e 9a 53 c5 3e 91 b1 84 bc 13 de 49 3d
       0.3446982 0.38540345 -0.016197952 0.049284052
000160 8d 15 86 bc 85 f7 59 bd 8d 50 8f bd ea 5f 50 3e
       -0.016367698 -0.05321457 -0.06997786 0.20349088
000170 de 88 0b be 4b 0b 5f be 00 c1 a2 3b d2 2b a9 bb
       -0.1362643 -0.21781652 0.004966855 -0.0051626945
000180 11 71 2f be 88 a2 86 3d ef b8 4b 3d a7 33 8d bd
       -0.17132975 0.06573969 0.049736913 -0.068946175
000190 03 24 aa 3c 12 3c 72 be f4 e9 10 3e cc 9f 0a 3d
       0.020769125 -0.23655728 0.14151746 0.0338438
0001a0 e7 e5 60 bd 2a 46 1f be 9c 92 5f 3e ab 57 e4 bc
       -0.054906752 -0.15554109 0.21833271 -0.027873835
0001b0 57 07 7d 3d bf 21 1b 3d 15 1a 12 3e a5 c1 09 be
       0.061774578 0.03787398 0.14267762 -0.13452776
0001c0 36 79 0f 3b 7f 43 83 3d 8d d2 12 be c4 05 df bd
       0.0021892316 0.06409358 -0.14338131 -0.108897716
0001d0 1c 07 9a 3e 0d e1 6b bd 1a ba a2 3b 5c bc 11 3d
       0.3008355 -0.057587672 0.0049660327 0.035580024
0001e0 82 58 87 bd 12 0a 20 bd 96 f0 29 3d ea 93 7b be
       -0.066086784 -0.039072104 0.041489206 -0.24568143
0001f0 1d e2 13 bd 9e 06 5b 3d 4b 5d 51 be ee c7 ab bd
       -0.03610431 0.053473108 -0.20445745 -0.08387743
000200 b9 39 0d 3e a0 94 43 bd b6 48 c1 bc 1f e2 97 be
       0.1379155 -0.04774916 -0.023594242 -0.29664704
000210 78 ad a5 bd d4 51 e9 3c 65 08 8b b9 c9 fd a0 bd
       -0.08089727 0.028481402 -0.000265184 -0.07860906
000220 69 a1 27 be d2 af 19 bd 84 36 36 be ec 99 a7 3d
       -0.16370167 -0.03752119 -0.17794234 0.08183655
000230 71 64 05 3c 5f 76 1d 3e 88 13 cd 3d 5a cd a7 3c
       0.008141623 0.15377186 0.10013491 0.020483661
000240 f0 63 34 bb ff 9f cc bc 13 6d 8d bd 73 a9 a1 3e
       -0.0027525388 -0.024978636 -0.0690557 0.31574592
000250 f2 62 96 3c 16 74 ba bc 1b bb 0c be 41 d9 35 bc
       0.018357728 -0.022760432 -0.1374325 -0.011099161
000260 09 fd 86 3d f3 1a 06 be 46 df de bd 98 7c 83 be
       0.065912314 -0.13096218 -0.1088243 -0.25680995
000270 9a ec a2 3e ba 99 4a bd f4 b0 0b 3e 1e 0a 33 bd
       0.31821138 -0.04946301 0.13641721 -0.04371082
000280 bd dc 1a be c7 a7 ae 3d aa a4 f2 3d 6a 7b 76 3d
       -0.15123267 0.08528095 0.118478134 0.06017629
000290 40 5b 85 3d 90 ac e8 3d e3 52 17 be 8d 40 5a be
       0.06511545 0.11361039 -0.14777713 -0.21313687
0002a0 38 ea 9a 3d 98 9f 1a be 19 51 82 3d 9f 7d b8 bd
       0.07564205 -0.15099943 0.063631244 -0.09008335
0002b0 51 8f 88 3e a6 a5 37 be 35 09 e6 3d 13 8d f0 bd
       0.26671842 -0.17934284 0.11232225 -0.11745658
0002c0 6d 89 bf bd 87 05 c8 3d dc e3 15 3e df a6 87 bd
       -0.09352384 0.09766679 0.14637703 -0.06623625
0002d0 4b 46 28 bd 92 34 85 3d 3b a3 ae bc f6 5d f2 3d
       -0.04108266 0.065041676 -0.021318069 0.11834328
0002e0 67 73 d7 3c a9 40 07 bd e2 fe 78 bc b4 45 e0 3d
       0.026300145 -0.03302065 -0.015197488 0.10950795
0002f0 2e 47 db 3d 0f ba a2 3e 31 4e 10 bd 43 04 a8 3d
       0.10706936 0.31782576 -0.03523082 0.08203938
000300 08 4b b4 3d 37 b4 a6 bc 3a 91 b8 bc 71 b7 3d 3e
       0.088033736 -0.020349605 -0.022530187 0.18527009
000310 e3 ab 1e be 88 f3 5a bd e1 98 3c 3d e2 f9 d4 3d
       -0.15495257 -0.053454906 0.046044234 0.10399224
000320 62 33 11 be 68 b3 b3 bc fc f7 db bd 2d b7 5a 3d
       -0.14179757 -0.021936134 -0.10740659 0.053397346
000330 e0 e8 43 3d 3f 49 51 3b 25 97 04 be 04 91 7d 3e
       0.04782951 0.0031934527 -0.12948282 0.2476235
000340 62 4b 58 3d d7 8e 82 be bf ea 07 3e 43 a9 b9 bd
       0.052806266 -0.25499603 0.13273142 -0.09065487
000350 f5 84 da bd 35 b8 17 3c 5a dc 62 3e 1c 3a 50 3e
       -0.10669891 0.009260227 0.2215437 0.20334667
000360 4a 09 68 3d 9a 37 8c 3d ad 4b ad bc 3c 43 1f 3e
       0.056649484 0.06846543 -0.02115425 0.15552992
000370 44 c2 88 bd de b0 9b 3d 87 83 7b 3e 25 90 92 bd
       -0.06677678 0.07602094 0.24561892 -0.071564
000380 52 fc fe 3d ce 5e 89 bd d2 18 cb bc ac 35 34 bd
       0.1245047 -0.06707536 -0.024792109 -0.043996498
000390 83 2f 0e be d7 4c f8 3c ca 89 da bd e8 01 2f 3e
       -0.13885312 0.030310078 -0.106708124 0.17090571
0003a0 0c 50 a4 bd 5d 22 83 3c 55 86 28 3e 6c 69 74 3e
       -0.0802308 0.016007597 0.16457494 0.2386834
0003b0 a5 8f 46 3d b6 f0 66 bd 5f 88 ae bb a3 e3 e1 3d
       0.048476834 -0.056381904 -0.0053263153 0.110297464
0003c0 fa 44 7b bd 0b b7 7c 3d f4 f6 54 be 9c e3 09 be
       -0.061345078 0.061698 -0.2079733 -0.13465732
0003d0 e7 86 11 bd 6c 4d 19 3e 99 72 14 bd 29 76 0c be
       -0.035529044 0.1497094 -0.0362421 -0.1371695
0003e0 14 ae da bd 5c 57 57 bd 97 9c b0 3d d5 a4 16 bc
       -0.10677734 -0.052573547 0.08623617 -0.009194572
0003f0 39 ff 1f 39 26 12 b5 bd 29 7d b3 bd ad e2 6c bd
       0.000152585 -0.08841352 -0.08764107 -0.057833362

fc3.bias f4 [10]
000000 87 63 6a bc e3 a4 12 bf d4 a4 b6 3d b9 b2 8b 3e
       -0.014305956 -0.5728285 0.08918157 0.27284792
000010 e0 0b eb 3e 46 dd 0e be 80 ee de bc ce e3 b1 be
       0.45907497 -0.13951597 -0.027213335 -0.34744114
000020 6d 54 07 3f 99 aa cb be
       0.528632 -0.39778593
